assets/modelo_converted.tflite (tflite, 491936 bytes, 9 tensors)

sequential_2/conv2d_6/BiasAdd/ReadVariableOp f4 [32]
000000 02 09 bc bb 7e bf e2 bb ea 7b d0 3b 7e 5c 39 3c
       -0.0057383785 -0.0069198003 0.006362428 0.011313556
000010 04 cd 0a bc 43 2c 6b 3b 8d 09 e8 bb 76 2d ee 3b
       -0.008471731 0.0035884536 -0.0070812167 0.007268603
000020 9e 57 ea 3a 6c 59 86 bb 9a f6 05 3c a4 b7 14 bc
       0.0017878895 -0.0041000154 0.00817647 -0.009076986
000030 0a 57 30 3b 23 e6 25 bb 25 77 7e 3c d3 1c 3f 3c
       0.0026907348 -0.0025314174 0.015531336 0.011664587
000040 05 0f 06 3c a4 d5 5d bb 30 ea ae bb cd 44 1d bc
       0.008182292 -0.0033849264 -0.005337976 -0.009598923
000050 44 64 94 bb 4d 34 c1 bb e3 9b bf bb f7 78 12 bc
       -0.004528554 -0.0058961273 -0.0058474406 -0.008939973
000060 8e d4 0a 3b b3 3b f6 3a 0f 91 7a 3c 58 48 94 3c
       0.0021183821 0.0018786102 0.015293374 0.018100902
000070 10 af 65 3c 32 9f ee bb 4d 7b bb bb 16 96 89 bb
       0.014018789 -0.007282161 -0.0057214857 -0.0041988

sequential_2/conv2d_7/BiasAdd/ReadVariableOp f4 [64]
000000 36 45 19 ba 00 00 00 00 b1 58 ba bb 56 01 61 3c
       -0.00058468 0.0 -0.0056868424 0.013733229
000010 c9 45 11 bc 81 30 62 bc d4 4b d8 3b 4f 7d 6b 3c
       -0.008866736 -0.01380551 0.0066008363 0.014373138
000020 11 ce 91 3b be c2 32 ba f4 10 89 3c c3 04 84 bb
       0.004449614 -0.000681918 0.016731717 -0.004028888
000030 28 3f 5c bc 6c 44 2a 3c 68 fd 46 3b 92 31 ec 3b
       -0.013442792 0.01039229 0.0030363444 0.0072080577
000040 0c 7b f1 3b b0 fb 66 bb 3d 25 ce 3b 61 b9 60 3b
       0.0073694047 -0.0035245232 0.0062910602 0.0034290182
000050 b1 e9 38 3b b2 76 12 3b 53 4b 76 bc ba 2f 15 3b
       0.0028215463 0.002234858 -0.015032607 0.0022764043
000060 c1 b9 bd bb b4 20 e3 3b 9b c6 c8 3b c7 21 4a 3c
       -0.005789966 0.0069313888 0.0061271912 0.012337155
000070 4e a2 05 3c d2 36 12 3c 0d b0 ea 3b cb df 3d 3c
       0.008156372 0.008924203 0.0071621 0.011589001
000080 50 83 cb 3a d6 f8 48 3c 91 5b 10 3b 85 e6 e5 3a
       0.0015526805 0.012266358 0.0022027234 0.0017540014
000090 61 2b 15 bc 45 f3 8e 3c 06 08 f0 bb f0 8b a0 3b
       -0.009104581 0.017449984 -0.007325175 0.0048994943
0000a0 73 bd 6f 3c d2 d0 f3 3a ea e6 e0 3b 24 42 25 bc
       0.014632571 0.0018601662 0.0068634646 -0.01008657
0000b0 4c a8 b9 ba a4 bd 2d bb 13 79 ec 3b 37 21 34 bb
       -0.0014164536 -0.002651074 0.0072165816 -0.0027485618
0000c0 db 2f 37 3c 3f fd 27 bb 8f 4b ca 3b 34 bf 3c ba
       0.011180843 -0.0025633124 0.006173558 -0.00072001223
0000d0 ca 4c 95 3b e9 37 ff 3a 43 db 31 bc b3 27 58 3c
       0.004556273 0.0019471619 -0.010855499 0.013193059
0000e0 ad 10 b9 3b 4e d1 af bb 65 c9 f9 39 71 a5 e9 bb
       0.00564774 -0.0053655272 0.00047643032 -0.007130318
0000f0 38 36 a8 bb 4f 19 72 bb 5e b0 26 3c 3f 19 1d 3c
       -0.0051334165 -0.0036941355 0.010173885 0.009588539

sequential_2/conv2d_8/BiasAdd/ReadVariableOp f4 [64]
000000 13 74 76 3c 2f bf 00 bc bb 3e 9a 3c 0e 65 c7 bb
       0.015042323 -0.007858082 0.01882874 -0.0060850447
000010 35 5c be 3b ac 20 b6 bb 51 3f 75 3c 00 42 14 bb
       0.005809332 -0.005558094 0.014968709 -0.0022622347
000020 00 00 00 00 d1 17 b8 bb ca fc db bb f0 12 4c 3c
       0.0 -0.0056180735 -0.0067134844 0.012455687
000030 4f fb 01 bb da 9a d2 3a 7b 0b d3 39 ce 50 b3 bb
       -0.001983363 0.0016067878 0.0004025361 -0.005472279
000040 48 05 23 bb 7a 1b c1 ba ba ef b7 bb 79 bd bb bb
       -0.0024874974 -0.001473292 -0.0056132944 -0.005729374
000050 c5 94 b8 bb 0f b0 cd bb 0b 99 34 3c 13 12 f9 3b
       -0.005632969 -0.0062770913 0.011022816 0.0076010316
000060 85 bf 36 3c 6f b2 89 bb 6a e0 ab bb ab ca be bb
       0.01115406 -0.004202179 -0.005245258 -0.0058224997
000070 d1 0a 3a bb 65 e5 39 3b 9a 42 db bb e7 1d 63 3c
       -0.0028387795 0.002836549 -0.006691289 0.01386211
000080 4c f4 f4 bb 19 28 28 bc 4a c7 71 3a 44 c7 85 3c
       -0.0074754115 -0.010263466 0.0009223117 0.016330369
000090 b0 3f 03 bc 18 70 d8 3b 71 ad fc bb 10 9a 1d 3c
       -0.00801079 0.0066051595 -0.0077111055 0.009619251
0000a0 73 65 87 bb 10 14 fe bb de 09 c3 bb e3 95 c8 bb
       -0.0041319667 -0.0077538565 -0.005952104 -0.0061213835
0000b0 f0 11 dc bb 83 f1 d9 3b a0 02 bb bb 94 60 12 3c
       -0.0067160055 0.006651105 -0.0057071 0.008934159
0000c0 b4 08 13 3b 97 2d 9d 39 07 3c 83 3c 34 59 04 3b
       0.0022435607 0.0002997934 0.016019834 0.002019477
0000d0 a5 a6 02 bc 29 30 ce ba d0 40 78 3c 9d e1 84 3b
       -0.007974301 -0.0015730906 0.015152171 0.0040552155
0000e0 d9 12 03 bc f0 a4 4f 3c 2d a5 ab bb 58 c0 46 bc
       -0.008000099 0.0126736015 -0.0052381963 -0.012130819
0000f0 e7 f8 f2 bb fe 1e 9f 3c bb 09 12 3c 63 69 4a bc
       -0.0074149254 0.019423958 0.008913453 -0.012354228

sequential_2/conv2d_6/Conv2D f4 [32, 3, 3, 3]
000000 57 84 3b 3b c6 83 54 bd ce de 09 bd 81 b2 56 bd
       0.0028612816 -0.05188348 -0.03365975 -0.05241633
000010 a8 d5 e6 bd 86 ea 03 3e 2a 2f ce bc 18 df 76 3d
       -0.112712204 0.12882432 -0.025168974 0.060271353
000020 5f 01 f4 3d 29 d0 5e 3d d4 00 d1 3d 64 02 82 bd
       0.11914324 0.054397736 0.10205236 -0.06348112
000030 22 81 0e 3e 24 08 79 bd a5 0a 39 3d e2 1a cc bd
       0.13916448 -0.06079878 0.045176167 -0.09966065
000040 ba 76 c0 bc c7 db 14 3e 8e 2c 74 3d 9c 9b 2f 3d
       -0.023494113 0.14536963 0.059612803 0.04287301
000050 43 89 c9 3d ba d4 a8 bd 86 a0 f0 3d b8 97 21 3d
       0.09840634 -0.08243699 0.117493674 0.03945133
000060 c1 09 17 3e 30 68 83 bd 49 c4 fe 3d 75 10 80 bd
       0.14749815 -0.064163566 0.12439782 -0.06253139
000070 53 0d d9 bc 6e 82 98 bc 8b 74 59 bc 32 5f a1 bd
       -0.026495611 -0.018616881 -0.013272415 -0.07879485
000080 55 71 b5 3d b9 65 f8 3d 1c 17 61 bd 20 f8 d2 bd
       0.08859507 0.12128777 -0.05495368 -0.10301232
000090 4d cd ae bd ed 99 77 3d a2 bb 9a bd 8f 12 16 3e
       -0.08535252 0.06044953 -0.07555319 0.14655517
0000a0 d8 bf eb 3d cc b6 94 3c 91 17 4b bc 9c ab 98 bd
       0.11511201 0.01815357 -0.012395755 -0.07454607
0000b0 64 9b cb 3d 26 16 7c bd b7 f4 cf bd 62 20 07 3e
       0.09941748 -0.06154456 -0.101540975 0.13195947
0000c0 52 db 85 3d ba 71 d4 bd a7 85 a6 3c 71 90 17 3e
       0.06535973 -0.10373254 0.020327402 0.14801194
0000d0 84 ac 08 bd 7c dd 82 bd 3a b2 67 bd f4 7b b0 3c
       -0.03336765 -0.06389901 -0.056566454 0.02154348
0000e0 08 7a 8c bc 7c 1e c1 bc 18 0c 89 bc 6d 6a 84 bd
       -0.017148033 -0.023574106 -0.0167294 -0.064656116
0000f0 6d d0 41 3d 12 f7 a8 bd 5a 58 fc 3d 82 09 c0 bd
       0.04731791 -0.0825025 0.12321539 -0.093768135
000100 bc 3b b8 3a 3a 78 c7 3d d5 22 17 3d 21 68 c6 3d
       0.0014055888 0.09739728 0.036898453 0.0968783
000110 93 6f 45 3d 4b 72 f8 3c a1 f2 f1 3d 54 f2 89 3d
       0.04820211 0.030327937 0.11813856 0.067356735
000120 0e 7b 17 3e 22 b6 cc 3d 0d ee f2 3d 59 56 14 3e
       0.14793035 0.099956766 0.11861811 0.14486064
000130 05 69 7f 3d 95 00 a0 3c 5f d3 ac 3d 23 61 aa 3d
       0.062356014 0.019531528 0.08438753 0.083193086
000140 6a ec dd 3d 25 07 c3 3d 48 59 92 3d f2 47 7e bd
       0.10836108 0.09522847 0.07145935 -0.06208033
000150 ad be a5 3d c1 ed bb 3c 75 85 85 bd 52 6b 20 3d
       0.08093009 0.022940518 -0.065195955 0.03916485
000160 ea a3 01 3e 8a 74 b5 bc 57 11 5d bd dd bd 02 3e
       0.12660185 -0.022150297 -0.053971615 0.1276774
000170 67 30 4e 3d de 42 cd bd 33 08 f3 bc 2d 96 52 3d
       0.05033913 -0.100225195 -0.029666996 0.05141275
000180 30 71 51 3d da 42 b1 bc 26 4b f6 ba d7 de 17 bd
       0.051133335 -0.021638323 -0.0018790707 -0.03707775
000190 3d 81 94 3d 99 df 61 bd 2b ef e3 bc 0a a4 c1 3d
       0.07251213 -0.05514488 -0.027824005 0.09455116
0001a0 69 9a 03 3c 12 4c 1b b9 f9 01 92 bd 57 61 73 bd
       0.00803242 -0.0001481029 -0.071292825 -0.059419002
0001b0 9d 60 b9 bd 8e 95 61 3c 93 82 04 be 62 e2 05 bd
       -0.09051631 0.013768567 -0.12940435 -0.0326866
0001c0 06 b6 40 3d b2 2b d9 3d 46 25 f1 bd 12 68 d7 bd
       0.04704859 0.10604037 -0.117746875 -0.10517897
0001d0 31 25 b3 bd 9f d8 01 3e 89 a8 92 bd d8 9e 5d 3d
       -0.08747328 0.1268029 -0.07161052 0.054106563
0001e0 57 93 0c 3b b5 2a ae bd 9b 0c cf bd 3b c4 fb bd
       0.0021450126 -0.085042395 -0.10109826 -0.12293287
0001f0 21 7b 05 3e 6c b8 c6 3d 6e 3e 84 bd 24 7b c1 3d
       0.13035251 0.097031444 -0.0645722 0.09447315
000200 98 32 29 3d 61 0a e4 bd f5 71 03 be 0f b6 a6 3c
       0.041308016 -0.11134792 -0.1283644 0.020350484
000210 98 0a 29 3c 8d f6 63 3d 2d ef 31 3d f4 67 9c 3d
       0.010317467 0.05565505 0.043440986 0.07637015
000220 5e a4 d3 bd e4 fa 4d bc 4f e1 1b 3e 96 94 0f be
       -0.10334085 -0.012572024 0.15222667 -0.14021525
000230 5c 60 5a bd eb 7a 6f 3d 1a 34 c8 3d 2e a5 c3 bd
       -0.05331455 0.058466833 0.097755626 -0.0955299
000240 b9 f2 31 bd 62 1b 65 bd 37 97 e9 bd f1 d7 54 3b
       -0.04344437 -0.055934317 -0.11405795 0.0032477344
000250 98 a9 c6 bd 72 b7 19 3b 8f 4f d0 3d 87 5b 4f bc
       -0.09700316 0.002345529 0.101714246 -0.012656099
000260 5a bc 2b bb 0a 5c 83 bb 73 c1 2c bd 18 77 c8 3d
       -0.0026204796 -0.0040087746 -0.042176675 0.0978834
000270 3e 79 c7 3d 34 38 9b 3c 70 50 da 3d 56 56 12 3e
       0.09739922 0.018947698 0.106598735 0.14290747
000280 a6 9e c6 bc 23 56 92 3d 39 9d 17 3e ac fe 00 3e
       -0.024245571 0.071453355 0.1480607 0.1259715
000290 28 9d f2 3d f7 79 06 3d df cf ff bd 5a b4 17 bd
       0.118463814 0.03283116 -0.1249082 -0.03703723
0002a0 fe ae d2 3d da 1b 0e 3e 44 02 16 bd 02 78 ff bb
       0.10287283 0.13877812 -0.036623254 -0.0077962885
0002b0 a9 f6 d2 bd 22 49 36 bb ed ce 17 3e df a1 f0 3d
       -0.10300953 -0.0027814587 0.1482503 0.117496245
0002c0 fa 5a 34 bd 12 2b 0b 3e 7c 08 86 3d e8 0b 80 3d
       -0.044032075 0.13590649 0.06544587 0.06252271
0002d0 18 ee fe 3d 25 1f ad bc 8d bb 19 be 79 ec 83 bd
       0.124477565 -0.021133015 -0.15012951 -0.06441588
0002e0 73 70 92 bd e5 60 55 3d 5d 44 de bd fd 22 87 3d
       -0.07150354 0.05209436 -0.10852883 0.0659847
0002f0 c8 db 47 bd 48 bc 86 bb f3 ad 00 be 9a 4f 05 be
       -0.048793584 -0.0041118003 -0.12566356 -0.13018647
000300 be 82 e7 3d 63 f4 de bd 92 94 83 bd 87 f6 b1 3d
       0.11304234 -0.10886457 -0.06424822 0.086895995
000310 01 e9 25 3d 17 7b 10 bc da dd b6 3d 9b 8e da 3d
       0.040505413 -0.008818409 0.089290336 0.10671731
000320 71 91 f1 bd 82 46 c3 bd e3 39 a4 bd 42 e3 bf bd
       -0.11795319 -0.09534933 -0.080188535 -0.09369518
000330 a4 e2 0a 3e 43 8b af bc a3 d4 ba bd be d0 ba 3d
       0.13563019 -0.02142871 -0.091225885 0.09121846
000340 80 fd e0 bd fc 6a 31 3d 75 72 1e 3e a9 5a ed bd
       -0.10985851 0.04331492 0.1547335 -0.11589558
000350 63 61 08 3e 9d 81 0e 3e 63 fc 81 bd 3c 9e b3 3d
       0.133184 0.13916631 -0.06346967 0.08770415
000360 8f f1 20 3e a6 54 34 bb 01 d3 78 bd ce 71 20 3e
       0.15717147 -0.0027516275 -0.060748104 0.15668413
000370 3f 3a d7 bd d3 17 fd 3c 46 9a 1c 3d 3a dc 07 bd
       -0.105091564 0.03089515 0.038233064 -0.03316901
000380 75 e6 16 3d 80 2a ae bd 34 b0 e6 3c 8e c0 03 bd
       0.036840875 -0.085042 0.028160192 -0.032166056
000390 62 0f da 3d c1 11 c9 3d d5 da fc 3d 2e 15 01 3e
       0.10647465 0.098178394 0.123464264 0.12605736
0003a0 b9 df 03 bd 89 0d d3 3d 8e 76 09 be 5e 7d cc 3d
       -0.03219578 0.10305316 -0.13424131 0.099848494
0003b0 a6 4d e2 3d 2d 58 ac bd a1 b5 e5 3d fa 6a 18 be
       0.110499665 -0.08415256 0.112162836 -0.14884558
0003c0 00 e1 9e 37 95 61 ff bd b8 14 62 bb cc 3d 0a 3e
       1.8939842e-05 -0.12469784 -0.0034497213 0.13500136
0003d0 82 8e 99 bd 40 a7 b9 bd 47 6b 00 3d 2f b1 b8 3c
       -0.07497884 -0.090651035 0.031352308 0.022545425
0003e0 9c 41 f4 3c eb 2e c1 3c 52 99 10 3e b4 a4 5c bc
       0.029816441 0.023581943 0.14120987 -0.013467003
0003f0 b4 52 16 bc be 31 ec 3d b9 db ba bb f6 15 23 3e
       -0.009174991 0.11532925 -0.0057024625 0.15926346

sequential_2/conv2d_7/Conv2D f4 [64, 3, 3, 32]
000000 5d a6 83 3d 6e f6 99 bb f0 6e fc bc c9 c0 ea bb
       0.06428216 -0.004698566 -0.030814618 -0.007164095
000010 9b 2e 2a 3d f3 37 86 bc 46 06 0c bd ed ac 73 3c
       0.041548353 -0.0163841 -0.03418567 0.014872772
000020 72 c4 68 3c 62 f3 91 3d 3e aa de 3c 20 36 55 bd
       0.014206992 0.071265 0.027180787 -0.05205357
000030 4b eb 47 bd cd 84 03 3d 26 5d 65 3d 34 ff d1 3c
       -0.048808377 0.03210907 0.055997036 0.025634386
000040 90 c8 30 bd 24 05 36 3d e2 b8 a7 3c d5 2a 17 bc
       -0.04316002 0.044438496 0.020473901 -0.009226521
000050 1a 58 ad bc ff a7 b6 bb 44 02 52 bd 14 c8 c1 bc
       -0.021160174 -0.005574226 -0.051271692 -0.023654975
000060 af 19 78 bd 9d 53 e0 bc fc 8c 77 3d 90 48 5f 3d
       -0.06057137 -0.02738362 0.060437188 0.05451256
000070 d6 95 b0 bb 10 5e 5b bd 6f 4d db bc cf 75 6f 3d
       -0.0053889556 -0.053556502 -0.026770322 0.05846196
000080 8e f9 66 bd a9 26 17 3c 3f 57 28 3d 80 22 20 3d
       -0.056390338 0.009225526 0.04109883 0.0390954
000090 50 1e 90 bc e7 61 50 3d 06 8e 0e bd 85 bd 90 3d
       -0.01759258 0.050874617 -0.034803413 0.07067398
0000a0 b4 3d 24 3d 04 d6 02 bc 14 3c 0e 3d 07 a9 d4 bc
       0.040097907 -0.007985596 0.034725264 -0.025959505
0000b0 65 b6 11 3d 7e 75 11 bd 70 06 45 bd 3e 20 3c bd
       0.035574336 -0.03551244 -0.048101842 -0.045929186
0000c0 09 20 43 3c f8 74 4e bc c9 fe 23 3d 97 8e 9a bc
       0.011909493 -0.01260113 0.040037904 -0.01886682
0000d0 9e 77 6e 3b 8f 4a 26 3b 16 64 43 bd 3a d2 a1 3d
       0.0036387215 0.002537403 -0.04770287 0.07901426
0000e0 c9 55 49 3c 66 2a bc bc 76 2a 78 3c e3 69 09 3d
       0.012288519 -0.022969436 0.015146842 0.033548247
0000f0 17 18 f0 bb ff 18 86 bd e5 81 58 3c fd 62 b5 3c
       -0.0073270905 -0.065477364 0.013214563 0.022141928
000100 be d4 9b ba 49 70 0b bd db 28 61 3d 9a ba a1 3b
       -0.0011888964 -0.03404263 0.054970603 0.0049355747
000110 63 36 8c ba 2e c4 e2 bb e3 09 b5 3d c4 79 93 3a
       -0.0010697361 -0.006920359 0.08839776 0.0011251499
000120 53 a0 45 bd 72 f3 b8 3c da 3b cb bc 93 de 4a 3d
       -0.0482486 0.022577021 -0.024808813 0.04952867
000130 2a b1 8e 3c 09 cd 8c 3d 78 63 0b 3d 79 a4 a3 3b
       0.017418463 0.06875045 0.034030408 0.004993972
000140 5f e5 ab 3d cc 94 21 bd ce 24 9c 3d 3d 11 21 3d
       0.083933584 -0.039448544 0.076242074 0.03932308
000150 f3 71 83 3d 7d 49 95 3d 37 39 0e bd 7d e0 d1 3c
       0.064182185 0.072894074 -0.034722533 0.02561974
000160 1f d2 fc bc d5 3b 68 bd 96 8c 3e 3d a0 17 f4 3c
       -0.030861912 -0.056697685 0.046520792 0.029796422
000170 48 59 b1 bc 60 57 aa bc 73 11 3e bd 34 0a 8a bd
       -0.021649018 -0.020793617 -0.04640336 -0.06740227
000180 a3 54 0a 3c 2a 4b f8 39 57 d9 6c bd 8a 43 1c bd
       0.0084430305 0.00047358248 -0.05782446 -0.038150348
000190 16 a1 7d bd 0a 32 94 3d 21 94 e5 bb 2c ca 42 bd
       -0.0619212 0.07236107 -0.0070061837 -0.047556087
0001a0 50 85 45 3d 40 19 90 bc a2 8b e9 bc 53 72 f4 bc
       0.04822284 -0.017590165 -0.028508965 -0.02983967
0001b0 2c 03 ae 3c ae 57 1d 3d 99 7f 80 bd 12 52 91 bd
       0.021241747 0.038413696 -0.06274337 -0.07095732
0001c0 c2 5a 95 3d 74 92 b1 bc 3c 1f 91 bd 87 72 0e 3d
       0.07292701 -0.02167628 -0.070860356 0.03477719
0001d0 4f 97 a0 bc f5 fe 94 bd 44 fd 32 3d b1 01 58 bd
       -0.0196034 -0.07275192 0.043698564 -0.052735988
0001e0 a4 27 85 bc 2a a6 88 bd 8a c0 fd bc 47 1a 7e bd
       -0.016254254 -0.06672318 -0.030975599 -0.06203678
0001f0 5a 73 76 bc 41 39 09 bb 68 c5 da bc af a5 86 3d
       -0.01504215 -0.0020938667 -0.026705459 0.065745704
000200 de 8a 13 3d d7 e2 19 3d 33 78 a5 bd a7 57 07 bd
       0.036021106 0.037569847 -0.08079567 -0.033042576
000210 a8 ae 1f 3b e4 12 53 3d a9 7a e9 3c 09 1d b5 3d
       0.0024365578 0.051531687 0.028500872 0.08843429
000220 69 58 0e bd 19 e3 93 bd aa af c5 bc fa 94 9d 3c
       -0.034752283 -0.0722105 -0.024131615 0.019236077
000230 e8 f1 7f 3b ba 2a e4 bb 5c 4c a9 3d 95 0c 82 bd
       0.00390541 -0.006963101 0.082665175 -0.06350056
000240 93 49 90 bc 25 4f 92 bc 0f ff 23 bd e2 23 b0 bd
       -0.017613208 -0.017860005 -0.040038165 -0.08600594
000250 d6 a3 b4 bc 6b 93 8a bd a4 fd 25 3d da 34 32 3d
       -0.02205078 -0.06766399 0.040525094 0.043507434
000260 04 4d 6f bc 11 9a 78 bc 50 06 a9 bd e4 23 62 3d
       -0.014605764 -0.015173451 -0.08253157 0.05521001
000270 95 e9 49 3d bd ee 97 3d d7 e3 ac bc 43 ac e1 3b
       0.049295027 0.074185826 -0.021104736 0.0068869903
000280 cd da 32 bd 28 94 80 3d e3 89 b0 3c bf 0b 38 bc
       -0.043665696 0.062782586 0.021550125 -0.011233269
000290 1b f2 e4 bb 75 50 d9 3b f7 f8 d2 ba f8 a2 53 3d
       -0.006986869 0.0066319057 -0.0016095926 0.05166909
0002a0 a7 d7 23 bd cb 4f 73 3c a7 94 87 bd d7 30 73 bc
       -0.040000584 0.014850567 -0.0662015 -0.014843187
0002b0 11 c2 87 3d fe 41 3a 3d 03 85 5a bd a5 a3 de 3c
       0.06628812 0.04547309 -0.053349506 0.027177641
0002c0 66 78 5e bd 87 a8 40 bd 05 68 28 3d 5d f5 df 3c
       -0.05431404 -0.04703572 0.041114826 0.027338678
0002d0 35 26 89 bc 3f 79 8f bd a9 fd ad 3d bc f8 47 3d
       -0.016741851 -0.07005548 0.084956475 0.048821196
0002e0 fb 6e 7d bc cf 50 8e 3d 37 5e 69 bd e7 35 7d 3d
       -0.015468354 0.06949007 -0.056974616 0.061818983
0002f0 53 eb 58 3c b5 36 4a 3c 67 29 83 bd 85 fa 24 bd
       0.013239699 0.012342145 -0.06404381 -0.040277977
000300 98 11 47 3d c0 41 e9 bc 2a 9b 8f 3d e3 09 a1 bd
       0.048600763 -0.028473735 0.07012017 -0.07863214
000310 0f f6 8f 3d 8d f7 03 3d 70 dc d6 3c 42 87 cf 3d
       0.07029354 0.032218505 0.02622816 0.1013322
000320 4a 39 d2 bc c7 1e a1 3d 6c 2b 6b bc 65 45 3e ba
       -0.025662083 0.078671984 -0.014353614 -0.00072582654
000330 42 f1 98 3d 4a 85 9a 3d ee c8 22 bd 4c 66 02 bc
       0.07467891 0.07544954 -0.039742403 -0.00795896
000340 fa 16 86 3d fe 54 81 bd 8c 65 4d bd c2 85 90 3d
       0.06547351 -0.06315039 -0.05014567 0.07056762
000350 b4 5c 7e 3d 68 50 80 bd 3c ec 2e 3d 23 05 07 3d
       0.062100127 -0.06265336 0.04270576 0.032963883
000360 fd a6 2c 3d 05 8f 07 3d 73 62 07 3d eb 33 9e 3c
       0.04215144 0.03309538 0.033052873 0.019311866
000370 bd af e4 3b 8d 3d 0d bd 1a 97 02 3d ec 2e 03 bb
       0.0069789574 -0.034482528 0.031882383 -0.0020016981
000380 b6 aa 8c bc ad 6c d3 bc 5b 51 71 bd a7 0c 80 bc
       -0.017171245 -0.025808657 -0.058915477 -0.015631033
000390 66 c3 a5 bd 3b aa ae 3c 7d ec 5c 3d 4d 57 a8 3d
       -0.0809391 0.021321407 0.05393647 0.08219776
0003a0 0c 39 56 3d a0 1a b3 3d e0 ac ad 3d 36 9e 80 3c
       0.052300498 0.08745313 0.08480239 0.01570044
0003b0 41 bc e6 3b 18 40 54 3d 3f f6 0d 3d c6 06 ac 3c
       0.0070414846 0.051818937 0.034658667 0.020999324
0003c0 84 11 63 3d a4 43 89 3d 44 e2 81 bd ff e7 74 bd
       0.055436626 0.067023546 -0.06341985 -0.05979156
0003d0 ab 7d 69 bd 70 16 3d bd e4 20 86 3d c4 32 78 bc
       -0.057004612 -0.046163976 0.06549242 -0.015148822
0003e0 f7 6a 3d 3c ee e0 de 3c b4 82 8c 3d 3e c6 29 3d
       0.011561147 0.027206864 0.06860867 0.041448824
0003f0 47 f4 ac bd 0b d9 ff bc 06 04 79 3c 0f 11 b1 3d
       -0.0844503 -0.031231424 0.015198713 0.08645832

sequential_2/conv2d_8/Conv2D f4 [64, 3, 3, 64]
000000 4b 07 7b 3d 54 38 8c 3d 92 79 b9 bc 7e cf 98 bb
       0.061286252 0.06846681 -0.022640977 -0.004663407
000010 08 db 19 bd b7 d2 4f 3d ab 92 59 3c a7 a7 d3 3c
       -0.0375624 0.050738063 0.013279597 0.025836779
000020 e4 6d 9e 3d 7d 23 9e 3d 7f a2 6b 3d fc 66 4d 3c
       0.07735804 0.077216126 0.057528015 0.01253676
000030 42 3d 76 3d 52 df 36 bd 78 44 b4 3d 57 89 9d bc
       0.060117014 -0.04464657 0.08802122 -0.019230528
000040 ae 08 a6 3d 9e aa 2b bd 66 97 a5 3d b6 e8 aa 3d
       0.08107124 -0.04191076 0.080855176 0.08345167
000050 0c 7b 69 3d 94 03 a7 bc 15 1a 61 3c 18 29 15 3c
       0.057002112 -0.020387448 0.013739129 0.009104036
000060 2a 28 62 bd 60 83 14 bd be a9 6f bb b2 0e d9 bc
       -0.055214085 -0.0362581 -0.003656968 -0.026496265
000070 cf 0e 4e bc 4d 1e 62 3b 76 7b 03 bd d9 2d 02 3c
       -0.012576773 0.0034502924 -0.032100163 0.007945501
000080 fc 0b 9c 3d d0 c1 9f bc e2 fb 54 3d 2d 7e 99 3d
       0.07619473 -0.019501597 0.051998027 0.07494769
000090 dd fe ad 3c 56 57 1d 3d c9 60 5c 3d 3c 8c e0 bc
       0.021239692 0.03841337 0.05380324 -0.027410619
0000a0 3f 20 16 3a a5 76 91 3d e3 84 97 3d f3 d7 1c 3d
       0.0005726851 0.07102708 0.07398393 0.038291883
0000b0 7c 4f 76 3d 3d 03 9c 3d 84 96 1b bd 67 9b 81 3d
       0.060134396 0.07617805 -0.03798534 0.06328469
0000c0 ad 0d f9 bc c1 c8 1f bd e1 3d 35 bc c4 28 46 3d
       -0.030402029 -0.039009813 -0.011062116 0.04837872
0000d0 86 6b a7 bc 56 c4 06 3b 03 4b 41 bd 6d fd 2d bd
       -0.020437013 0.0020563803 -0.047190677 -0.042478014
0000e0 80 38 ab bc e0 80 36 3d 67 80 3d 3d 22 18 8a 3d
       -0.020900965 0.0445565 0.046265032 0.06742884
0000f0 a2 16 49 bd 1c 07 76 3d b4 98 63 3d b5 70 ac 3d
       -0.04909385 0.060065374 0.05556555 0.08419935
000100 e1 ca af 3d 48 78 c7 bc 0f 92 6d bd fc 90 6c bb
       0.08583618 -0.024349347 -0.05800062 -0.003609716
000110 75 b5 06 bd f0 f9 11 3d cb c9 7b 3d 06 98 5b 3d
       -0.032887895 0.03563875 0.06147174 0.053611778
000120 c8 ef 17 bd 44 96 04 bd 3d 3d f7 3b 81 1a c2 bc
       -0.037093908 -0.032369867 0.007545142 -0.023694279
000130 30 aa 1f 3d aa a1 45 bd 9b 58 9e 3d b6 f9 12 3d
       0.038980663 -0.048249878 0.07731744 0.035882674
000140 ce 7b 44 3d c0 dc b9 3c b4 be f1 3c 98 ac e1 bc
       0.04796963 0.02268827 0.02950988 -0.02754812
000150 e7 22 b1 3d 84 e8 98 3d 66 b6 36 3d b1 ae 8d 3d
       0.08649235 0.07466224 0.044607542 0.06918085
000160 ea cc 04 bc 9a 9f c6 bc 64 53 d8 3c 74 33 8a bb
       -0.008105496 -0.024246026 0.026406951 -0.0042175595
000170 db ef 92 3c c0 09 c3 bc d8 af a3 3a 81 0f 70 3d
       0.017936638 -0.02380836 0.0012488319 0.058608536
000180 4b 4b 9d bc fe 53 70 bd f7 97 93 3b 23 49 17 bd
       -0.019200942 -0.05867385 0.0045041996 -0.036934983
000190 ab 2a 96 3d 61 43 e2 3c 7f 37 96 bb a6 57 7d 3d
       0.07332357 0.02762002 -0.0045842524 0.061851166
0001a0 0a 18 41 3d 0a 30 96 bc 0e 8b 14 3d 5c 0a 08 bd
       0.047142066 -0.018333454 0.036265425 -0.033213004
0001b0 60 f3 0e bd f0 25 12 bd 9d f0 67 3d f3 3a 8e 3d
       -0.03490007 -0.03568071 0.05662595 0.069448374
0001c0 38 64 79 3d 50 50 57 3d 08 b3 bc bc 3a cd c3 3c
       0.06088659 0.052566826 -0.023034588 0.02390157
0001d0 60 28 fc 3c 52 23 22 bd aa 95 46 3b e6 53 61 bb
       0.030780971 -0.039584465 0.003030161 -0.0034382283
0001e0 60 0c 31 3c 8a c9 58 3d 94 13 e5 3c 03 10 5b 3d
       0.010806173 0.052926578 0.027963437 0.053482067
0001f0 fe f9 3f bd 62 e1 9f 3d a0 c6 92 3d eb 0c 9f 3d
       -0.04686927 0.0780666 0.07166791 0.07766136
000200 96 dc 30 3d 78 76 86 3d 50 83 8c 3d 55 eb 81 3d
       0.043179117 0.06565565 0.06860983 0.06343714
000210 28 67 61 bc c6 6d 84 3d ad 4a 7b 3d a7 4a 89 3c
       -0.0137575045 0.0646625 0.061350513 0.01675923
000220 42 e0 21 3c b1 15 a9 bc 2e b8 2b bd 5b 0f 95 3c
       0.009880127 -0.020640226 -0.041923694 0.018195799
000230 fc 74 09 bc dc c1 38 3d a3 46 53 bc cd d7 81 3c
       -0.008389708 0.045106754 -0.012895259 0.015849972
000240 3e 05 2c bc 42 96 a8 3d 05 b1 c8 bb ad db 87 bc
       -0.010499297 0.082317844 -0.006124618 -0.016584242
000250 af bb b6 3d 7e 8f e3 3c 8c f0 03 3d e5 8b 9b 3c
       0.089225166 0.027778383 0.032211825 0.018987605
000260 ca 1d 87 3d ab 3d 8c 3d f5 78 5f 3c 1d cc 6d 3b
       0.06597479 0.068477 0.013639678 0.003628499
000270 bc f5 8e 3c ab c1 7c 3d e4 fd aa 3d 29 ad 06 bd
       0.01745116 0.061708134 0.08349207 -0.032879982
000280 1c 4f 05 bc 9c 6a 8c 3c 30 e8 64 3c 5d cd 01 bd
       -0.008136537 0.017140679 0.013971373 -0.03168999
000290 9d e0 99 3d 34 17 f4 3b e7 36 5a bd 9c 2a 90 3d
       0.07513545 0.007449055 -0.053275015 0.07039377
0002a0 9e 67 ab bb e7 62 d7 bc 37 5b 98 bc 20 bd 24 3d
       -0.005230858 -0.026292278 -0.018598182 0.040219426
0002b0 0d fc 27 3d d2 4a 5c 3d 3c fc 91 3d 42 43 6f 3d
       0.04101186 0.05378229 0.07128188 0.05841375
0002c0 41 02 ac 3d 40 6a bf bb 9b 7a 51 3d a6 cd e9 3c
       0.083988674 -0.0058415234 0.051142316 0.028540444
0002d0 ba 55 89 3d 60 56 04 3d 38 6e 92 3d 15 a0 51 bd
       0.06705804 0.032308936 0.07149929 -0.051178057
0002e0 d9 d4 92 bd ee e7 9e 38 24 6c ca 3c 59 73 0a bd
       -0.07169504 7.5772274e-05 0.024709769 -0.03380141
0002f0 2f 97 9f bc af 94 85 3d f8 36 a5 b9 87 1f 55 bb
       -0.01948127 0.065225 -0.00031512207 -0.0032520012
000300 21 3b 83 3d fa 62 30 bd a2 92 34 bd f8 9a 85 3d
       0.06407762 -0.04306314 -0.044085152 0.065236986
000310 64 f5 87 3c 98 00 4e 3d e8 1e 26 bd 4f 71 03 3d
       0.016596504 0.050293535 -0.04055682 0.03209048
000320 aa f4 45 3d 4f 5d 82 3d 29 fe 72 bc f4 19 71 3d
       0.048329033 0.063654535 -0.014831104 0.05886264
000330 fa 41 45 3d b5 73 a4 3c cf e2 33 bd 44 6f 88 bc
       0.048158623 0.020074705 -0.043917473 -0.016654618
000340 2e 21 cf bb ed 93 c2 3c 91 d0 7c bd 17 a9 14 bd
       -0.006321094 0.023752177 -0.061722342 -0.03629407
000350 8e 5a f3 ba 03 8b ff bb a2 02 41 3d f8 2f 60 3a
       -0.0018566416 -0.007798554 0.04712165 0.000855207
000360 6f ba 8a bc ca c0 ac bc 4c d1 9c 3d 89 7c 7e 3d
       -0.016934602 -0.021088023 0.07657108 0.062130485
000370 7b 28 9c 3d aa f0 3b bd 46 18 83 bc c8 c7 c4 3c
       0.076249085 -0.045883812 -0.016002785 0.024021044
000380 7e e4 d7 3c 46 69 fb 3c a8 34 00 bd 83 b5 6e 3b
       0.02635407 0.030689847 -0.031300217 0.0036424107
000390 5a 4b 3a 3c 70 09 99 3d 11 a6 33 3d e9 7f 54 3d
       0.011370504 0.07472503 0.043859545 0.051879797
0003a0 78 76 64 3d b4 a7 44 3d 6a 16 3d 3c fd f3 bf bc
       0.055777043 0.048011497 0.011540988 -0.023431772
0003b0 ea 42 fc bb 00 01 40 bd d3 12 c8 3c 07 b8 33 bd
       -0.0076984065 -0.046875954 0.024423039 -0.043876674
0003c0 04 4e 3c 39 67 51 b2 bd 7c 8c b3 bb ff e4 0f bc
       0.0001795814 -0.087069325 -0.0054793935 -0.008782624
0003d0 26 00 39 bc 26 3a 4e 3c 82 ce a9 3c 8f 05 6d 3d
       -0.011291539 0.012587106 0.020728353 0.05786663
0003e0 93 8c 8b bd d6 26 30 bd 59 5e 66 bc bd 83 8b 3d
       -0.06813922 -0.043005787 -0.01406058 0.068122365
0003f0 d4 c3 2c bd f7 64 91 3d 8e 0a a2 3d 3b a9 a0 3d
       -0.042178944 0.07099336 0.079121694 0.07844778

sequential_2/dense_4/BiasAdd/ReadVariableOp f4 [64]
000000 00 00 00 00 3d 15 6a 3c ee 49 95 b9 77 c8 bb bb
       0.0 0.01428729 -0.00028474577 -0.0057306844
000010 26 a3 bb bb 98 57 55 3b 7e f3 5f 3c 69 81 3e 3b
       -0.005726236 0.003255343 0.013668893 0.0029068834
000020 38 81 01 bc 21 69 5a 3c 00 00 00 00 88 4f 49 3c
       -0.007904343 0.013330729 0.0 0.012287028
000030 00 00 00 00 19 19 6a 3c 00 00 00 00 a7 a1 1e bc
       0.0 0.01428821 0.0 -0.009682096
000040 c5 82 6e 3c 2f 4c 40 3c c8 c2 bb bb e0 fd 27 bc
       0.014557545 0.011736914 -0.005730007 -0.0102534
000050 f7 44 84 3c 50 4e 07 bc 00 00 00 00 54 d5 62 3c
       0.016146166 -0.008258417 0.0 0.013844807
000060 71 87 01 bc 00 00 00 00 86 05 52 bb 00 00 00 00
       -0.007905827 0.0 -0.003204675 0.0
000070 be 4e 63 3c 03 ef 8c 3c 00 00 00 00 80 e2 46 bc
       0.013873754 0.017203813 0.0 -0.012138963
000080 00 00 00 00 64 01 ac bb 92 c4 bb bb ce 85 94 3c
       0.0 -0.005249189 -0.00573022 0.01813021
000090 00 00 00 00 00 00 00 00 4f cb 31 bc 8e c5 bb bb
       0.0 0.0 -0.010851695 -0.0057303375
0000a0 0e c7 5d 3b 99 a1 91 3c d0 c7 bb bb d8 c3 8e 3c
       0.003384057 0.017777251 -0.0057306066 0.01742737
0000b0 60 0c ac bb ad aa 7e bb 25 0b 98 bb 97 61 9e bb
       -0.0052504987 -0.0038859055 -0.0046400004 -0.004833411
0000c0 a4 a8 2d 3c 00 00 00 00 00 00 00 00 00 00 00 00
       0.010599289 0.0 0.0 0.0
0000d0 0c fa 01 bb a9 c8 ae bb 00 00 00 00 b4 8a a9 bb
       -0.0019832877 -0.005333979 0.0 -0.0051740054
0000e0 fd e2 fe bb b0 c8 bb bb cb fd 93 3c 89 2b 59 3c
       -0.007778524 -0.005730711 0.018065354 0.0132550085
0000f0 cb 7a e3 bb d6 c0 33 3b 2c 58 ff ba 7a 16 5e 3c
       -0.0069421283 0.0027428172 -0.0019481233 0.0135551635

sequential_2/dense_4/MatMul f4 [64, 1024]
000000 80 06 a4 bb 5c c0 d1 bc 24 9f 51 3d 1c 7d 05 3d
       -0.0050056577 -0.02560442 0.05117716 0.032590017
000010 72 00 83 bc 40 33 16 bb d8 a9 dc 3c 5a db 08 bd
       -0.015991423 -0.002291873 0.026936457 -0.033412315
000020 40 1f ec 3c 68 2e 99 3c b8 6b d7 3c 26 c9 88 bd
       0.028823495 0.018698886 0.026296481 -0.06678991
000030 28 42 33 bc 9c 8f 1c 3d 78 f6 1e 3c d0 21 bb 3b
       -0.010941066 0.038222894 0.009702317 0.005710818
000040 8c a1 c5 3c 54 8f 82 bd 88 79 88 bc 0d 5f 8c bd
       0.024124883 -0.06374994 -0.016659513 -0.06854067
000050 90 77 ca bb 30 70 87 3d 4c b1 1a 3d 80 22 6a 3b
       -0.0061788037 0.06613195 0.03776674 0.003572613
000060 d8 fc 41 3d da c7 df bc da 9e c1 bc 02 3d 28 3d
       0.04736027 -0.027316976 -0.023635317 0.041073807
000070 c0 0f 21 bd 7c e1 e0 3c e0 14 9a 3c d0 34 50 3d
       -0.03932166 0.02745127 0.018808782 0.050831616
000080 d6 9f 8c bc 46 92 93 3d 90 a5 7e 3d cc 45 66 3d
       -0.01716606 0.07205634 0.06216961 0.056218907
000090 42 4c 90 3d c0 9a c2 3c 58 bc d1 3c 70 21 88 3d
       0.07045795 0.023755431 0.025602505 0.06647003
0000a0 85 14 17 bd 64 7a 81 3c a0 5c 24 bb 64 1e ae bc
       -0.036884803 0.01580543 -0.0025079623 -0.021254726
0000b0 00 a4 6f b9 dc a1 da bc c4 2d 22 3d b0 f2 7f bc
       -0.00022853911 -0.026688509 0.039594427 -0.015621826
0000c0 83 98 68 bd 00 b3 c7 b9 e4 64 e1 bc 26 d4 89 3d
       -0.05678607 -0.00038089603 -0.027513929 0.06729917
0000d0 00 62 6c 3c 3c 78 5a bc c8 1f 87 3d 80 93 2b 3c
       0.014427662 -0.01333433 0.06597859 0.010472178
0000e0 76 5d c1 bc ba c5 8f bd fa 94 8e bd 8c 12 54 3d
       -0.023604136 -0.07020135 -0.06962009 0.0517755
0000f0 00 27 6c bb 50 ee ba bc 6c db 24 3d 94 29 db bc
       -0.0036033988 -0.022818714 0.04024832 -0.026753224
000100 55 21 8f bd d0 df 76 3d 14 4e 1a 3d ba c8 94 bc
       -0.069887795 0.060272038 0.037672117 -0.01816212
000110 c0 62 cd bb c0 9b fd bb 25 c7 8d bd 38 82 77 3d
       -0.0062678754 -0.007739514 -0.069227494 0.06042692
000120 f2 f8 93 bc c0 d1 31 bc 82 3b 92 3d f8 b6 6f 3c
       -0.018063042 -0.010853231 0.071402565 0.0146310255
000130 b6 dd 32 bd ee 11 4e 3d 48 06 55 bc c2 2d 1a 3d
       -0.04366847 0.050310068 -0.013001986 0.037641294
000140 40 28 b9 bc e0 23 36 bd da 8a c7 bc 22 c3 30 bd
       -0.0226022 -0.044467807 -0.024358202 -0.043154843
000150 af d9 56 bd f6 a4 41 3d 6a 71 8f 3d 9c c6 67 3d
       -0.052453693 0.04727646 0.07004054 0.056585893
000160 a6 3a 1e bd bc 56 33 3d d7 90 25 bd 30 4b 89 3b
       -0.03863015 0.04378389 -0.040421333 0.0041898713
000170 f0 96 04 3d 46 6e 3f 3d 70 42 fe 3b 46 72 84 3d
       0.032370508 0.046736024 0.007759385 0.064671084
000180 22 dc ec bc fa 59 c1 bc bc a4 4c bc 20 40 36 bb
       -0.028913561 -0.023602474 -0.012490448 -0.0027809218
000190 43 cf 7d bd e0 00 80 bd 02 ee 23 bd aa 10 80 bd
       -0.06196524 -0.06250167 -0.040021904 -0.062531784
0001a0 98 88 2d bc ec 0f 8a 3d 30 7b 43 3c 78 21 90 bc
       -0.0105916485 0.06741318 0.011931226 -0.017594084
0001b0 5c 52 0d 3d b8 d0 a1 bc 88 05 30 3c 27 a4 0f bd
       0.034502372 -0.019752845 0.010743506 -0.035068657
0001c0 2d aa 8c bd 90 dd a3 3c 48 23 3f 3c 02 36 28 bd
       -0.06868396 0.02000311 0.011666127 -0.04106713
0001d0 dc 4c 0a 3d 00 e0 10 bd 7e 70 32 bd 7a 14 72 bd
       0.033764705 -0.035369873 -0.043564312 -0.05910156
0001e0 20 34 8e 3d 33 ee 46 bd 10 c2 13 3d f4 9b 4b bd
       0.06943536 -0.04856701 0.036073744 -0.049709275
0001f0 80 06 76 3d dc 7b 91 bc 90 6c 9f bb 28 d9 94 bd
       0.060064793 -0.017759256 -0.0048652366 -0.07267982
000200 ab 9b 68 bd aa 0f 73 bd 78 1c 53 3c e0 7d 68 3b
       -0.05678908 -0.05934111 0.012885205 0.0035475418
000210 90 01 b0 3c 18 80 93 bd 80 8c 19 3a c4 85 fd 3c
       0.02148512 -0.07202166 0.0005857423 0.030947573
000220 06 16 eb bc 76 5d 6b bd b4 5b 97 3d 68 e3 ec bc
       -0.028697025 -0.05746218 0.07390538 -0.02891703
000230 de 0b 4c bd 7c 13 75 bd 4e c1 89 3d be 13 66 bd
       -0.049816005 -0.059833035 0.06726323 -0.05617117
000240 57 df 86 bd b0 c6 ef bb 86 c9 9f bc 53 d7 2c bd
       -0.065855674 -0.0073173866 -0.019505274 -0.042197537
000250 40 ac 73 bb fa 29 8b 3d 5c e6 47 3d f5 b5 6d bd
       -0.0037181526 0.06795116 0.048803672 -0.058034856
000260 0e 6a 93 3d 7c f6 65 3d 2c e4 d7 bc 74 32 e0 bc
       0.07197963 0.05614327 -0.026353918 -0.027367808
000270 de 2c 9f bc ce 64 cf bc 39 aa 04 bd a0 43 df bb
       -0.019430574 -0.025316622 -0.0323889 -0.0068134815
000280 fe b5 82 bd 24 34 54 3d 22 06 1d 3d 28 a5 48 bd
       -0.063823685 0.051807538 0.038335927 -0.04898563
000290 9e e5 2c 3d 54 ae 3d 3d d2 35 1e bd 90 cb 10 3d
       0.042211168 0.04630883 -0.038625546 0.035350382
0002a0 2c bc 0f 3d bc fe 8b 3d 98 ea 7a 3d 22 da 35 bd
       0.035091564 0.06835696 0.061258882 -0.04439748
0002b0 23 be 26 bd 88 8c 3a 3d 70 db 95 3d ba f4 14 3d
       -0.040708672 0.045544177 0.07317245 0.036366202
0002c0 5a 8c b9 bc d7 4d 0f bd 6c 73 08 bd fa 9b 40 bd
       -0.022649933 -0.034986343 -0.0333132 -0.04702375
0002d0 68 40 38 3d 14 c6 5f 3d 8c cd cf 3c ec 25 86 bc
       0.044983298 0.05463226 0.025366567 -0.016375504
0002e0 7a 9d 3b 3d fa 05 68 bd 00 9b 9e 3a ec d8 92 3c
       0.04580448 -0.056646325 0.0012100637 0.017925702
0002f0 97 84 49 bd b4 8f d2 3c fe 44 0d 3d 88 c0 51 3c
       -0.049198713 0.025703289 0.034489624 0.012802251
000300 0a 77 fc bc dc 99 96 bd 80 f4 ed bb 06 bb 2f 3d
       -0.030818481 -0.07353565 -0.0072618127 0.04290297
000310 62 15 fe bc 14 da a9 3c 46 e4 a0 bc 38 d7 61 bc
       -0.031016055 0.02073387 -0.0196401 -0.013784222
000320 94 e1 95 3c bc 67 75 bd 32 b1 30 bd 62 f3 34 3d
       0.01829604 -0.059913382 -0.043137737 0.04417742
000330 0e 7a 55 bd 2a e2 03 bd 81 75 88 bd 26 b0 38 bd
       -0.052118354 -0.03219811 -0.06663037 -0.045089863
000340 d6 9d fe bc 5d da 6d bd 80 ec 81 3c 53 cd 83 bd
       -0.031081121 -0.058069576 0.015859842 -0.06435647
000350 85 c8 2a bd 14 03 fc 3c 43 a6 6a bd 62 f8 96 3d
       -0.041695137 0.030763187 -0.057287466 0.07371594
000360 1d a5 69 bd 84 59 59 3d 5a cf f8 bc 3e c1 10 3d
       -0.05704223 0.053063884 -0.03037231 0.03534054
000370 00 e5 94 bd 68 31 47 3d dc 7f 28 3d 51 44 1a bd
       -0.07270241 0.0486311 0.04113756 -0.037662808
000380 f4 9f 1f 3d fa c8 bb bc f4 53 2d bd 84 4b 86 3d
       0.038970903 -0.022922982 -0.042316392 0.06557372
000390 d4 70 ef 3c 1d 96 2a bd a0 34 a4 3c 70 8b 77 3c
       0.029228605 -0.041647065 0.020044625 0.015108928
0003a0 38 d3 3e 3c 40 91 b0 bb 13 e3 22 bd d6 59 a9 bc
       0.011647038 -0.005388409 -0.039767336 -0.02067272
0003b0 b0 85 29 3d 4e 23 d9 bc 20 1b 5b 3b 9e 45 94 bc
       0.04138726 -0.026506092 0.0033432916 -0.018099602
0003c0 a2 fe 83 3d 80 65 e1 ba 34 d4 d7 bc b8 94 47 3c
       0.06445052 -0.0017196387 -0.026346304 0.012181453
0003d0 58 f9 63 3c e8 2c 7e bd bc d0 c7 bc 76 3d 11 bd
       0.013914429 -0.062054545 -0.024391524 -0.035459004
0003e0 ec d4 7f 3d 1c dd 87 3d ec ad 4d bc 3a 8c 94 3d
       0.062458917 0.0663397 -0.012553673 0.072533086
0003f0 70 fe 78 3d 90 87 09 bd de 39 8a 3d 76 18 54 bd
       0.060789526 -0.033576548 0.067493185 -0.05178114

sequential_2/dense_5/MatMul f4 [1, 64]
000000 14 f8 62 be 87 81 a9 bd d5 57 08 bd 38 29 5e be
       -0.22164947 -0.082766585 -0.03328689 -0.21695411
000010 4b 1b 71 be 4b bc 07 3d c3 57 77 be 62 52 0b 3e
       -0.23545568 0.033138555 -0.24154572 0.13605645
000020 0c 19 2c 3e 33 f2 0f be 24 a1 82 3e e6 4e 98 be
       0.1680643 -0.14057235 0.25513566 -0.29747695
000030 20 2e 89 3c 59 b7 0d be 30 b5 24 3e ec cb 91 bb
       0.016745627 -0.13839473 0.16084743 -0.004449358
000040 a5 6c d3 bd 91 71 a6 bd 1f aa 08 3e 0b b6 79 3e
       -0.10323457 -0.0812713 0.13346146 0.2438585
000050 38 cd 3a bd 62 33 21 3e 94 5e bf bd ad 11 e3 bd
       -0.045605868 0.15742257 -0.09344211 -0.11087356
000060 65 3e 33 3b 2a 0e ae bd 54 b2 61 3e 78 73 05 be
       0.0027350422 -0.08498795 0.22040683 -0.13032329
000070 05 7f 8b be f3 e3 a3 be c0 d4 df 3d 3f e9 73 3c
       -0.27245346 -0.3200985 0.10929251 0.014887153
000080 90 a0 4a bd ba 40 90 3d 59 03 be bd 04 03 78 bd
       -0.04946953 0.070435956 -0.09277982 -0.06054975
000090 40 b7 eb 3b 9e ba c6 bd 11 ca 39 3e 19 8d b7 3d
       0.007193476 -0.09703563 0.18143488 0.08962459
0000a0 6c 51 d9 3d 89 51 1a be 04 f7 35 be 8a bb 54 be
       0.10611233 -0.15070166 -0.1777001 -0.20774665
0000b0 22 bf ed 3c 1b 1d c5 3d e3 a1 3a 3e eb 2a 76 3e
       0.029021803 0.09624692 0.18225817 0.2403981
0000c0 cf e7 94 be de 40 0a 3e b0 48 d0 bd 6e af 15 be
       -0.29083106 0.13501307 -0.10170114 -0.14617702
0000d0 90 4e 6e 3e d4 0f 5c be 6c ea e7 3d db c5 62 be
       0.23272157 -0.21490413 0.11324009 -0.22145788
0000e0 c2 a3 40 3e ce a9 52 3e 4e ad 3b bd c1 19 20 be
       0.18812469 0.20572588 -0.045819573 -0.15634824
0000f0 48 cb a1 3d 12 e2 81 3e e3 94 55 3e 73 c2 50 be
       0.07900101 0.2536779 0.20857577 -0.20386676
